…
recordNames==no_SNN(CNN)-DVS-Gesture_dt=15ms_T=60.csv
savePath==f:\python_code\Attention-SNN\MA_SNN\DVSGestures\data
train_dataset==None
test_dataset==None
train_loader==None
test_loader==None
drop_last==False
pip_memory==False
num_work==8
model==None
criterion==MSELoss()
optimizer==None
device==cuda
device_ids==range(0, 1)
best_acc==0
best_epoch==0
epoch_list==[]
loss_train_list==[]
loss_test_list==[]
acc_train_list==[]
acc_test_list==[]
train_loss==0
train_correct==0
train_acc==0
test_loss==0
test_correct==0
test_acc==0
state==None

DataParallel(
  (module): Net(
    (convAttLIF0): ConvAttLIF(
      (conv2d): Conv2d(2, 64, kernel_size=(3, 3), stride=(1, 1), padding=(1, 1))
      (BNLayer): BatchNorm2d(64, eps=1e-05, momentum=0.1, affine=True, track_running_stats=True)
      (network): Sequential(
        (ConvIF): ConvIFCell()
      )
    )
    (convAttLIF1): ConvAttLIF(
      (conv2d): Conv2d(64, 128, kernel_size=(3, 3), stride=(1, 1), padding=(1, 1))
      (BNLayer): BatchNorm2d(128, eps=1e-05, momentum=0.1, affine=True, track_running_stats=True)
      (pooling): AvgPool2d(kernel_size=2, stride=2, padding=0)
      (network): Sequential(
        (ConvIF): ConvIFCell()
      )
    )
    (convAttLIF2): ConvAttLIF(
      (conv2d): Conv2d(128, 128, kernel_size=(3, 3), stride=(1, 1), padding=(1, 1))
      (BNLayer): BatchNorm2d(128, eps=1e-05, momentum=0.1, affine=True, track_running_stats=True)
      (pooling): AvgPool2d(kernel_size=2, stride=2, padding=0)
      (network): Sequential(
        (ConvIF): ConvIFCell()
      )
    )
    (FC0): AttLIF(
      (network): Sequential(
        (IF): IFCell()
      )
      (linear): Linear(in_features=8192, out_features=256, bias=True)
      (BNLayer): BatchNorm1d(256, eps=1e-05, momentum=0.1, affine=True, track_running_stats=True)
    )
    (FC1): AttLIF(
      (network): Sequential(
        (IF): IFCell()
      )
      (linear): Linear(in_features=256, out_features=11, bias=True)
      (BNLayer): BatchNorm1d(11, eps=1e-05, momentum=0.1, affine=True, track_running_stats=True)
    )
  )
)
{'Total': 2324065, 'Trainable': 2324065}
tensor([[[[[ 0.,  0.,  0.,  ...,  0.,  0.,  0.],
           [ 0.,  0.,  0.,  ...,  0.,  0.,  0.],
           [ 0.,  0.,  0.,  ...,  3.,  0.,  0.],
           ...,
           [ 0.,  0.,  0.,  ...,  6.,  3.,  4.],
           [ 0.,  0.,  0.,  ...,  6.,  0.,  2.],
           [ 0.,  0.,  0.,  ...,  1.,  0.,  0.]],
…
