…
recordNames==TCSA_SNN(CNN)-DVS-Gesture_dt=15ms_T=60.csv
savePath==/home/noitom-server/PycharmProjects/pythonProject/Attention-SNN/MA_SNN/DVSGestures/data
train_dataset==None
test_dataset==None
train_loader==None
test_loader==None
drop_last==False
pip_memory==False
num_work==8
model==None
criterion==MSELoss()
optimizer==None
device==cuda
device_ids==range(0, 4)
best_acc==0
best_epoch==0
epoch_list==[]
loss_train_list==[]
loss_test_list==[]
acc_train_list==[]
acc_test_list==[]
train_loss==0
train_correct==0
train_acc==0
test_loss==0
test_correct==0
test_acc==0
state==None

DataParallel(
  (module): Net(
    (convAttLIF0): ConvAttLIF(
      (conv2d): Conv2d(2, 64, kernel_size=(3, 3), stride=(1, 1), padding=(1, 1))
      (BNLayer): BatchNorm2d(64, eps=1e-05, momentum=0.1, affine=True, track_running_stats=True)
      (attention): TCSA(
        (relu): ReLU(inplace=True)
        (ca): ChannelAttention(
          (avg_pool): AdaptiveAvgPool3d(output_size=1)
          (max_pool): AdaptiveMaxPool3d(output_size=1)
          (sharedMLP): Sequential(
            (0): Conv3d(64, 8, kernel_size=(1, 1, 1), stride=(1, 1, 1), bias=False)
            (1): ReLU()
            (2): Conv3d(8, 64, kernel_size=(1, 1, 1), stride=(1, 1, 1), bias=False)
          )
          (sigmoid): Sigmoid()
        )
        (ta): TimeAttention(
          (avg_pool): AdaptiveAvgPool3d(output_size=1)
          (max_pool): AdaptiveMaxPool3d(output_size=1)
          (sharedMLP): Sequential(
            (0): Conv3d(60, 12, kernel_size=(1, 1, 1), stride=(1, 1, 1), bias=False)
            (1): ReLU()
            (2): Conv3d(12, 60, kernel_size=(1, 1, 1), stride=(1, 1, 1), bias=False)
          )
          (sigmoid): Sigmoid()
        )
        (sa): SpatialAttention(
          (conv): Conv2d(2, 1, kernel_size=(3, 3), stride=(1, 1), padding=(1, 1), bias=False)
          (sigmoid): Sigmoid()
        )
      )
      (network): Sequential(
        (ConvIF): ConvIFCell()
      )
    )
    (convAttLIF1): ConvAttLIF(
      (conv2d): Conv2d(64, 128, kernel_size=(3, 3), stride=(1, 1), padding=(1, 1))
      (BNLayer): BatchNorm2d(128, eps=1e-05, momentum=0.1, affine=True, track_running_stats=True)
      (pooling): AvgPool2d(kernel_size=2, stride=2, padding=0)
      (attention): TCSA(
        (relu): ReLU(inplace=True)
        (ca): ChannelAttention(
          (avg_pool): AdaptiveAvgPool3d(output_size=1)
          (max_pool): AdaptiveMaxPool3d(output_size=1)
          (sharedMLP): Sequential(
            (0): Conv3d(128, 16, kernel_size=(1, 1, 1), stride=(1, 1, 1), bias=False)
            (1): ReLU()
            (2): Conv3d(16, 128, kernel_size=(1, 1, 1), stride=(1, 1, 1), bias=False)
          )
          (sigmoid): Sigmoid()
        )
        (ta): TimeAttention(
          (avg_pool): AdaptiveAvgPool3d(output_size=1)
          (max_pool): AdaptiveMaxPool3d(output_size=1)
          (sharedMLP): Sequential(
            (0): Conv3d(60, 12, kernel_size=(1, 1, 1), stride=(1, 1, 1), bias=False)
            (1): ReLU()
            (2): Conv3d(12, 60, kernel_size=(1, 1, 1), stride=(1, 1, 1), bias=False)
          )
          (sigmoid): Sigmoid()
        )
        (sa): SpatialAttention(
          (conv): Conv2d(2, 1, kernel_size=(3, 3), stride=(1, 1), padding=(1, 1), bias=False)
          (sigmoid): Sigmoid()
        )
      )
      (network): Sequential(
        (ConvIF): ConvIFCell()
      )
    )
    (convAttLIF2): ConvAttLIF(
      (conv2d): Conv2d(128, 128, kernel_size=(3, 3), stride=(1, 1), padding=(1, 1))
      (BNLayer): BatchNorm2d(128, eps=1e-05, momentum=0.1, affine=True, track_running_stats=True)
      (pooling): AvgPool2d(kernel_size=2, stride=2, padding=0)
      (attention): TCSA(
        (relu): ReLU(inplace=True)
        (ca): ChannelAttention(
          (avg_pool): AdaptiveAvgPool3d(output_size=1)
          (max_pool): AdaptiveMaxPool3d(output_size=1)
          (sharedMLP): Sequential(
            (0): Conv3d(128, 16, kernel_size=(1, 1, 1), stride=(1, 1, 1), bias=False)
            (1): ReLU()
            (2): Conv3d(16, 128, kernel_size=(1, 1, 1), stride=(1, 1, 1), bias=False)
          )
          (sigmoid): Sigmoid()
        )
        (ta): TimeAttention(
          (avg_pool): AdaptiveAvgPool3d(output_size=1)
          (max_pool): AdaptiveMaxPool3d(output_size=1)
          (sharedMLP): Sequential(
            (0): Conv3d(60, 12, kernel_size=(1, 1, 1), stride=(1, 1, 1), bias=False)
            (1): ReLU()
            (2): Conv3d(12, 60, kernel_size=(1, 1, 1), stride=(1, 1, 1), bias=False)
          )
          (sigmoid): Sigmoid()
        )
        (sa): SpatialAttention(
          (conv): Conv2d(2, 1, kernel_size=(3, 3), stride=(1, 1), padding=(1, 1), bias=False)
          (sigmoid): Sigmoid()
        )
      )
      (network): Sequential(
        (ConvIF): ConvIFCell()
      )
    )
    (FC0): AttLIF(
      (network): Sequential(
        (IF): IFCell()
      )
      (linear): Linear(in_features=8192, out_features=256, bias=True)
      (BNLayer): BatchNorm1d(256, eps=1e-05, momentum=0.1, affine=True, track_running_stats=True)
      (attention): TA(
        (relu): ReLU(inplace=True)
        (ta): TimeAttention(
          (avg_pool): AdaptiveAvgPool1d(output_size=1)
          (max_pool): AdaptiveMaxPool1d(output_size=1)
          (sharedMLP): Sequential(
            (0): Conv1d(60, 12, kernel_size=(1,), stride=(1,), bias=False)
            (1): ReLU()
            (2): Conv1d(12, 60, kernel_size=(1,), stride=(1,), bias=False)
          )
          (sigmoid): Sigmoid()
        )
      )
    )
    (FC1): AttLIF(
      (network): Sequential(
        (IF): IFCell()
      )
      (linear): Linear(in_features=256, out_features=11, bias=True)
      (BNLayer): BatchNorm1d(11, eps=1e-05, momentum=0.1, affine=True, track_running_stats=True)
      (attention): TA(
        (relu): ReLU(inplace=True)
        (ta): TimeAttention(
          (avg_pool): AdaptiveAvgPool1d(output_size=1)
          (max_pool): AdaptiveMaxPool1d(output_size=1)
          (sharedMLP): Sequential(
            (0): Conv1d(60, 12, kernel_size=(1,), stride=(1,), bias=False)
            (1): ReLU()
            (2): Conv1d(12, 60, kernel_size=(1,), stride=(1,), bias=False)
          )
          (sigmoid): Sigmoid()
        )
      )
    )
  )
)
{'Total': 2340535, 'Trainable': 2340535}
epoch: 1
dt: 15
T: 60
Tarin loss:0.08176
Train acc: 26.723
Test loss:0.00909
Test acc: 8.333
Saving..
beat acc: 8.333333333333334
epoch: 2
dt: 15
T: 60
Tarin loss:0.07938
Train acc: 44.000
Test loss:0.00909
Test acc: 8.333
beat acc: 8.333333333333334
…
